Navigation-DRL-Udacity-master/Navigation-DRL-Udacity-master/Training code/model_weights.pth (torch_old, 28423 bytes, 6 tensors)

fc1.weight f4 [64, 37]
00000000: 1915 6f3e 5e8a db3b f291 babe aa32 f3be
00000010: 8839 5abf 4667 f83d 216e 22be 5595 613d
00000020: f675 2ebc e6f9 b73b 54f2 c3bd ce35 983d
00000030: 2868 53be afce 62be d459 fe3b 3780 cabc
00000040: 563e d1bd 320b c33d c643 783d 1cb9 54be
00000050: cf50 a8bd c7d7 463e e96d 00bd b4a8 173e
00000060: 687f a73c 98e5 c5bc d33f 83bc c155 d5bc
00000070: aa95 b8bd e895 2dbd 4a26 043e 7421 cbbd
00000080: 51fd 8ebe 8339 243e 9cc0 a5be 9828 6dbb
00000090: 3ec4 51bd fe60 133e fcd3 8e3d e7a5 b9bc
000000a0: 4b8b 7c3d 02eb 733e 81f1 32bc 5059 2dbe
000000b0: 7d22 1dbe f836 45bc 60e8 5cbe f72c 3fbc
000000c0: 5851 a03d 19ec 92b9 73b5 b33c 082b c03d
000000d0: cfb7 c43d 2e33 54bd 1b8d 07bd 34a1 a83b
000000e0: defb 9639 dfae a5bc 3fe6 ca3d c443 a6be
000000f0: ef6e 36be 9a06 bcbe 7c41 6bbd ae52 b63c
00000100: f796 2dbb d248 95bd a5f2 bfbd e616 293d
00000110: 2f2d 113e 0519 fd3c 60d1 b33d 3a4b d23d
00000120: 7f63 223c cc97 a33c 6bca 163e 9440 f53d
00000130: cd2d 043e e707 0fbc 465b b8be 0457 8fbe
00000140: d8e3 203e 694a 483e 888d 12be ae3f 8ebe
00000150: 46d9 89bd 060c 523d 7891 c93d dc01 a8bd
00000160: 0bf6 cbbd 9faa 47be 496a 7c3e 63d9 98bb
00000170: b833 843e c969 c2bd db53 07be 1053 cdbd
00000180: 6cf6 cc3d 639c 2f3e 84cf dcbd eab7 28be
00000190: 210f 8f3e 396d 0a3e dfca 98bd b355 49be
000001a0: 2b32 2cbf 04df 8d3c b934 0cbc b7f8 063e
000001b0: 4ae0 cfbd 8497 95bc 4822 bfbc 2eba e43e
000001c0: 8f56 04bf 857c c0bd 2ec0 44be 0ab2 bdbf
000001d0: df6c a4bc db58 c23c 42fd 203d d9f1 19bc
000001e0: 5ae6 b1bd 7b0f 7fbd 867b 1e3d 7e76 fdbc
000001f0: b852 a53c f7a4 713c 1914 ebbd 6377 cebb
00000200: 192c 653c b6f5 e6bd f59b d23c c544 723d
00000210: cb66 0fbd 343d 67bb a628 ea3c 26db a4bd
00000220: 6e41 053d 1c32 34bd 301f 8fbb c0b8 2d3e
00000230: 14b0 343e f175 c23d 5bdf ca3d e9ed 0cbd
00000240: 6cfa 8c3c 60d4 8cbd aab2 09bd 0985 6f3c
00000250: 9c4e 78bc 9e37 99be a2e3 50bd fbaa abbe
00000260: c7a7 39be 128c e23d 116f b1bd f375 78be
00000270: c5dc adbd eb36 9fbf 9837 b43c 05e2 32be
00000280: ca31 c6bd 61d9 77bd c385 b8be f111 5ebd
00000290: f1ac 34be 1f07 8abc 24f5 76be 9fdd bd3d
000002a0: a0cc 4c3b d553 57be 7d40 513d 5741 0fbe
000002b0: e863 493e 5cdd bcbc e20a 06bd 3979 d63d
000002c0: 0a66 f03c c776 e5be f5c4 2d3d 33c1 45be
000002d0: 1410 463d ffce 2e3e 8883 143e ffeb 033e
000002e0: d46c e7bb 6a84 d4bc 4a36 283d 286a 853c
000002f0: e21a 81bd 8677 e33c 6c39 d63e f0cf d8be
00000300: 4fd1 23bf 1820 31bf 44d7 e0bf 7d48 5fb9
00000310: 02ed 803c 39bd 3abc b8db 343c e18f ce3d
00000320: 1abc f6bc 2fd2 793d 0024 053a 040c b03c
00000330: 1c80 113e ab4d 113e 2008 833d 8c89 193e
00000340: 5e6d 023e 37ae 653d 54a1 96bd 4d29 57bd
00000350: 0451 c93d f057 733e 627c c13e 941a 7ebd
00000360: 5720 963d f90a 553d e0de dc3d 64b9 053e
00000370: 372b 383c 9316 e93b d2d8 bcbd 0f55 373e
00000380: 5a60 82be 4135 4dbd a13a 35bd bad8 57be
00000390: 2e91 093e 257d 91bd 3a38 99be 0a93 7e3e
000003a0: 0835 6bbd 1d65 113e 2ef1 d23d 8f34 48be
000003b0: a0a5 a5bd 8fcd 58b9 38c7 b1bd 7b46 c6bd
000003c0: 7296 9ebe 4f69 d33d 8064 f8be 1a35 b9bc
000003d0: d949 683e 88d1 7fbe 299b 783e a4c4 923d
000003e0: b305 1cbe 6ab3 46be 21f0 d6bd 18a5 19bd
000003f0: b6d1 fe3d 9d96 c1bd d301 4fbe 6921 efbd
0.23347892 0.0066998443 -0.36439472 -0.4749959 -0.85244036 0.12129073 -0.15862323 0.055074055
-0.010648241 0.005614507 -0.09567705 0.074321374 -0.20645201 -0.22149156 0.007762173 -0.02471934
-0.10216968 0.0952362 0.06061151 -0.20773739 -0.08218538 0.1941825 -0.03135482 0.14810449
0.020446494 -0.02415733 -0.016021645 -0.026041867 -0.09012921 -0.04237929 0.12905231 -0.0991849
-0.2792764 0.16037564 -0.32373512 -0.0036187526 -0.05121254 0.14392468 0.069740266 -0.022662116
0.061656278 0.23820117 -0.010921837 -0.16928601 -0.15345187 -0.012037031 -0.21573019 -0.011668435
0.07828015 -0.00028023197 0.021937108 0.093832076 0.09605371 -0.05180662 -0.033093553 0.00514617
0.00028797885 -0.020224987 0.09907197 -0.32473576 -0.17815755 -0.36723787 -0.057435498 0.022256222
-0.0026487687 -0.0728928 -0.09372453 0.041281603 0.14177392 0.03089572 0.087801695 0.102682546
0.009911417 0.019969843 0.14725654 0.11975208 0.12908097 -0.008729911 -0.36007136 -0.27996075
0.15711915 0.19559635 -0.14311802 -0.2778296 -0.06730895 0.051280998 0.09842199 -0.0820348
-0.09959038 -0.1949868 0.2464992 -0.0046645864 0.25820708 -0.09492833 -0.13215582 -0.100256085
0.10007939 0.171495 -0.10781768 -0.16476408 0.2794123 0.13518228 -0.074605696 -0.19661598
-0.6726405 0.017318256 -0.008557492 0.13180815 -0.101502016 -0.018260725 -0.023331776 0.44673294
-0.5169458 -0.0939875 -0.19213936 -1.4819958 -0.020071445 0.02372401 0.039304025 -0.00939604
-0.08686514 -0.062270623 0.03869202 -0.03094029 0.020181045 0.014748803 -0.11478443 -0.006300853
0.0139875645 -0.112773344 0.025709132 0.059147615 -0.03501014 -0.0035284283 0.028583836 -0.08049612
0.0325331 -0.0439931 -0.0043677315 0.16965008 0.17645293 0.09495152 0.09905883 -0.034406576
0.017209254 -0.06876445 -0.033617653 0.01461912 -0.015155461 -0.29925245 -0.050998338 -0.33528885
-0.18130408 0.110618725 -0.08663762 -0.24263744 -0.08489374 -1.2438635 0.021999165 -0.17469032
-0.09677465 -0.060510043 -0.36039552 -0.05421633 -0.17644097 -0.016849099 -0.24116951 0.092707865
0.0031249896 -0.21028073 0.05108689 -0.13989769 0.19667017 -0.023054771 -0.032725222 0.1047234
0.029345531 -0.44817182 0.04242416 -0.19311981 0.048355177 0.1707115 0.145033 0.12882994
-0.007062534 -0.025942046 0.0410674 0.01628597 -0.063039556 0.027766954 0.41840684 -0.42346144
-0.63991255 -0.69189596 -1.7565694 -0.00021293941 0.015738014 -0.011397653 0.011038713 0.100860365
-0.03011899 0.060991462 0.0005078912 0.021490104 0.14209026 0.14189784 0.06398034 0.14993876
0.12737033 0.056074347 -0.0735499 -0.052529622 0.09829906 0.23764014 0.3779021 -0.062037066
0.07330387 0.052012417 0.107846975 0.13059002 0.011240772 0.0071132868 -0.09221043 0.17903541
-0.25464135 -0.050099615 -0.044245366 -0.21078768 0.13434288 -0.071039476 -0.2992571 0.24860778
-0.05742362 0.14198728 0.102999076 -0.195513 -0.08088231 -0.00020675942 -0.08680576 -0.09681412
-0.30974156 0.103228204 -0.48514175 -0.022608329 0.2268442 -0.24982274 0.24277939 0.071664125
-0.15236549 -0.19404379 -0.1049502 -0.03751096 0.12442343 -0.09452555 -0.2021554 -0.11676294

fc1.bias f4 [64]
00000000: 339f e93d d648 82bd 3613 ccbd e294 61bc
00000010: 6e96 003e 1b46 b83a 7681 17be c288 843d
00000020: 3d47 393c 8d46 63be 566f 0a3e 508d 853e
00000030: 7a71 8e3d 5b12 f93d 9454 6abd 1fc5 54be
00000040: f102 203d 73c8 91bd 0341 1f3b e0fd 4fbe
00000050: 161e 1fbe 8ce4 f2bc eb33 2f3d b861 dbbd
00000060: b160 1abe d846 4c3e 5aca d6bd d6f0 86bd
00000070: cdb3 873d 3a38 a13d 2708 0cbe c455 6abe
00000080: aedb 0d3e 6fae 6abc 0450 06be 3cc1 c13c
00000090: 4ecd 92bd 4f23 5f3a 4c58 9fbd 617a e2bd
000000a0: d57d 97bd 5709 c0bc dfc9 12be ebcb 2e3e
000000b0: 4673 ddbc 3d67 93bd 1ee8 1abd 84d1 a9bd
000000c0: 3128 d8bd f382 85bc e6ed 2abe 7043 5fbc
000000d0: f84b 6e3d d1b1 cbbd c893 65be 53df ef3b
000000e0: 0dbc 013e f323 8ebd c306 47bd 12da d8bd
000000f0: f3b6 c8bb c9f3 ed3b 5e1e 073b 6880 c43b
0.11407318 -0.063615486 -0.09964602 -0.013768407 0.12557384 0.0014058979 -0.14795479 0.06471397
0.011308488 -0.22194882 0.13519034 0.26084375 0.06955238 0.12161704 -0.057209566 -0.2077832
0.039065305 -0.07118311 0.0024300225 -0.2031169 -0.1553882 -0.029649995 0.042774122 -0.10711998
-0.15075947 0.199489 -0.10487814 -0.065889046 0.06626091 0.078720525 -0.13674985 -0.2288428
0.13853332 -0.014323815 -0.13116461 0.023651712 -0.07168065 0.00085120363 -0.07780513 -0.11058498
-0.073970474 -0.023441954 -0.1433482 0.17069976 -0.027032506 -0.071974255 -0.03781902 -0.08291915
-0.10554541 -0.016297793 -0.16692314 -0.013626918 0.05817792 -0.09946025 -0.22419655 0.0073203235
0.12669392 -0.069404505 -0.048590433 -0.105884686 -0.006125325 0.0072617275 0.0020617465 0.0059967525

fc2.weight f4 [64, 64]
00000000: f38a 833d 029b 043c 9d4a c43d 0c2f af3e
00000010: 32e2 853e 772f 94bd acfd a8be 76c0 85bd
00000020: 5e43 913d 0d19 45be 3628 26bd ddce bebd
00000030: f884 2fbe 62dc 293e fe50 81be 6569 9a3d
00000040: eac3 34be 963f 0abe aaea cf3d df1b ad3d
00000050: 321d f5bd f568 7cbe e3fd 26be 7796 bc3d
00000060: 73d1 623d a5ae a3be 6183 a13e 501a 04be
00000070: 840b 833d ee39 3bbe 64f2 06be 8d2d 54bd
00000080: 1495 853e 3cba 05be bd8f 4c3e 3cb5 b23d
00000090: 1906 92bd f5ba a7bd 0595 f93e 4cd8 8fbe
000000a0: a9c2 3fbe ef68 a9bd d5ec 513e f491 b2bc
000000b0: 7cbc e63d 1aff babd b7d1 c1be df80 1cbd
000000c0: 6f68 3cbd 231a 33bd e5e7 13bf c467 29be
000000d0: a02b 17bd 9cbc 7d3d 6e68 70be 9c2e 02bd
000000e0: a1be 4bbd e4be 13be 7d6f 2dbe e166 9cbe
000000f0: 61c1 02be d60d ce3d 4e40 34be d600 b4bd
00000100: fcbf ae3d 319e ca3d 9bd7 6dbe 593e 363e
00000110: bd27 383e f8eb a93e d9b8 61be 8089 313e
00000120: 1619 a5bd 0541 0bbe a405 74bd 2c66 553e
00000130: 72cb 2dbe 27b7 3c3e bab4 1d3d 5254 8f3c
00000140: 6b63 193e a85d c63c abcc 18be 6e3e b8be
00000150: 70ab ea39 d452 05be 525e 243e fe1b 22be
00000160: c556 583c d833 623b 5082 42be 91ba 843d
00000170: ac64 f13d e94d 4abe c7b2 c93d 6b11 6ebe
00000180: e6c0 37bc d120 1dbd 3c60 a2bd 1fac 8fbe
00000190: 8dee f8bd afbd 23bd 1a82 60be 00b6 afbe
000001a0: 2203 13bd 8315 293e 701f 3f3d a7d7 8ebc
000001b0: fb99 ddbd 9c75 c1bd e6cb a6bb 6f04 a0bd
000001c0: cfb0 afbd e535 26be 4772 d4bd 598c 093e
000001d0: 9083 12be 2c06 7b3e e554 23be f524 cebd
000001e0: d7ae 87be 0294 54be ca8b 063c b5a9 1a3d
000001f0: fb3d 2bbe 19b8 e73d 6364 5ebe 13b2 33be
00000200: 7abf 63bd 9879 1bbe 43c2 efbd 9e7e 40bd
00000210: 0a8d c23d d55f 853d 04b3 45bd 72c4 5b3e
00000220: f1a0 22bb 2d37 83be 0fe6 943d 070a f13d
00000230: 9c3b 9cbc a0d0 493d 7363 a0be aead abbd
00000240: 4a08 bcbd 8fc4 493d cd31 913d 2a9c edbc
00000250: 0186 0dbe 6e91 f93d 8cc2 b2bb 4825 aaba
00000260: 2eff 74bd 4fb5 273e 02b0 b93c 4ec5 3a3e
00000270: a4b9 81bc d572 f43e 9327 ebbc be2d d83d
00000280: 297e a8bd 76fc d63e b4b1 20bd 5e51 6c3e
00000290: 323d 553e 7d5f 8abd f51f 913e 44e5 6c3d
000002a0: 42d3 363e 97e1 75be 17d5 3e3e 4a35 debd
000002b0: abd3 2d3c a4b6 e3ba 9991 0bbd 4354 84bd
000002c0: 7fc7 4d3e fd5a 65be 65e1 e2bd 309f 58be
000002d0: bb92 82bd 80de 063e 8f8e 02be 67d5 76bd
000002e0: 7e88 7abe 93e1 6fbe 29e5 4c3e f2ef 323e
000002f0: e256 dcbd fc66 07be a16e 00bd c909 cd3d
00000300: 884d 123e 6db9 b6bd 3560 7e3c 56ad a5be
00000310: 24b9 0abd 79bd 0e3c 9982 25be 9309 3bbe
00000320: 2b62 b3ba 8291 c9bd a9a4 66bd f519 853d
00000330: e45c 3a3e 704f 333e 783c 6abd 9690 8ebe
00000340: cf13 40be d5da d23d 22dd b33d 6ef3 5c3e
00000350: 6bac 95bd 77ae b43d 15d5 863d db91 c93d
00000360: 832c 043e 1769 8b3d e515 533d d909 e73c
00000370: 9d0c 443e 75df 503d c965 a4bc 7f1f 2b3c
00000380: b110 73bd b85c 913e c221 043e 655d b3bd
00000390: adb5 20bd 2dc6 1e3d 270c ac3e e5fd 43be
000003a0: adfa db3d 2134 e73d 4753 d1bd fc65 bbbd
000003b0: 6554 29bd 97bb 2e3e c669 da3b 1625 9b3e
000003c0: 9278 6f3d 2c9d 2abe 6f27 e6bd 18eb 163e
000003d0: 84ee 7d3c c66c 433d 8468 54be 58a5 413e
000003e0: 262f 76bd 59a9 20bc b9ea 843d ef50 1e3e
000003f0: f635 82be baa9 1abd 82ae 81be c18f ce3d
0.06422987 0.008093597 0.09584544 0.3421558 0.26149136 -0.07235616 -0.33006036 -0.0653085
0.070929274 -0.19247837 -0.040565692 -0.093168 -0.17140567 0.16587976 -0.25257105 0.07539634
-0.1765286 -0.13500819 0.101521805 0.084525816 -0.11968459 -0.24649413 -0.16307788 0.092083864
0.055375528 -0.3196918 0.31545547 -0.12900662 0.06398681 -0.18283817 -0.13178402 -0.051801253
0.260903 -0.13059324 0.19976707 0.08725974 -0.07130069 -0.08189956 0.48746505 -0.2809471
-0.187266 -0.082719676 0.205005 -0.021798111 0.11266419 -0.09130688 -0.37855312 -0.03820884
-0.045998033 -0.043726098 -0.5777572 -0.1654349 -0.03690684 0.06194745 -0.23477337 -0.03178273
-0.049742345 -0.14428288 -0.1693706 -0.3054724 -0.1276908 0.10061233 -0.17602655 -0.08789222
0.08532712 0.09893454 -0.23226778 0.17797221 0.17983909 0.33187842 -0.2204317 0.17337608
-0.080614254 -0.13599022 -0.05957569 0.20839757 -0.1697214 0.18429242 0.038502432 0.017496262
0.14979331 0.02421458 -0.14921825 -0.3598513 0.0004475969 -0.13019878 0.16051605 -0.1583099
0.013204281 0.0034515765 -0.18995023 0.06480897 0.1178678 -0.19756283 0.09848552 -0.23248832
-0.011215424 -0.038361374 -0.079285115 -0.28061005 -0.12154875 -0.03997582 -0.2192463 -0.34318542
-0.03589166 0.16512112 0.04666084 -0.017436815 -0.10820385 -0.0944626 -0.0050902246 -0.07813346
-0.085786454 -0.16231497 -0.10373359 0.13432445 -0.14308 0.24514073 -0.15950353 -0.10065643
-0.2650058 -0.20759585 0.008212039 0.0377595 -0.16722862 0.11314411 -0.21717982 -0.17548399
-0.05560253 -0.15183103 -0.11706974 -0.04699575 0.09499557 0.06512419 -0.048266426 0.21461657
-0.0024815167 -0.25628033 0.07270443 0.11769491 -0.019071393 0.049271226 -0.31325874 -0.08382736
-0.091812685 0.04925972 0.07089577 -0.029005129 -0.1382065 0.12185942 -0.0054553207 -0.0012981081
-0.05981367 0.16377757 0.022666935 0.18239328 -0.01583559 0.4774386 -0.028705394 0.105556
-0.08227188 0.41989487 -0.03923197 0.23077914 0.20824125 -0.06756494 0.28344694 0.057835832
0.17854026 -0.24011837 0.18635975 -0.10850008 0.010609548 -0.0017373157 -0.0340744 -0.06461384
0.20095633 -0.2239799 -0.11078147 -0.21154475 -0.06375643 0.13170815 -0.12749694 -0.06026211
-0.2446613 -0.23425893 0.20009293 0.17474344 -0.10758759 -0.13222879 -0.031355504 0.10011632
0.14287388 -0.08922086 0.015525867 -0.32358807 -0.03386797 0.008712166 -0.161631 -0.18265371
-0.0013685873 -0.098422065 -0.056309376 0.064990915 0.18199497 0.17510772 -0.057186574 -0.27844685
-0.18757556 0.10295645 0.08782412 0.21577236 -0.07308277 0.08822339 0.06583611 0.09842273
0.12907605 0.06807154 0.051534552 0.028202938 0.19145437 0.050994355 -0.020068066 0.010444521
-0.05934209 0.2839105 0.12903503 -0.08758048 -0.03923576 0.038763214 0.33603022 -0.19139822
0.10741172 0.1128924 -0.10220962 -0.09150311 -0.04134025 0.17063747 0.006665441 0.30301732
0.058464594 -0.16661519 -0.1123799 0.14738119 0.015498761 0.047711156 -0.20742995 0.1891073
-0.060103558 -0.009806001 0.06490082 0.15460561 -0.25431794 -0.03775952 -0.2532845 0.10086013

fc2.bias f4 [64]
00000000: 815e fdbc 6cac 71bc 793c e93d 9886 a1bd
00000010: bdd3 6d3e c2ac 6bbd 56b6 553c f0ae c13c
00000020: e359 833e d0b1 f33e 3785 41be 8dff d13e
00000030: 0a51 173e 0d54 96bc a1cc e8bd 0491 e63d
00000040: 918e d5bc 6ce7 32be 0f7c bfbd 446b 653e
00000050: c775 9c3e 1d36 df3e 5a3d 6fbe fc62 a7bc
00000060: f998 83bd ddab 02be 103c da3d f208 19bd
00000070: 8579 8cbd 0031 9a3d 2094 92bb 7fcd b3bb
00000080: 74f1 37bc 4945 933d bc20 003d e294 96bc
00000090: e4a1 4dbe 145c 0fbe 29d7 c73e b4d6 06bd
000000a0: 5dc0 8dbd c163 0a3f 1f57 ab3e 8799 adbc
000000b0: f878 40bd 5c84 9abd df1d 973b 059f efbd
000000c0: 4d60 013e 0346 bdbd 1bed efbd 7351 ce3e
000000d0: 9901 1b3d 449b 1fbe 7363 8b3e 8b50 8c3c
000000e0: b0e1 e5bd 35e4 34be 3683 783d f9b9 92bd
000000f0: e5e1 00b9 c25c 443e c21e 29bd 89b3 0d3e
-0.030928852 -0.014750581 0.11388487 -0.07887 0.23225303 -0.0575378 0.013043961 0.023642987
0.25654516 0.47596598 -0.18898474 0.41015282 0.14777008 -0.018350625 -0.11367155 0.11258128
-0.026068958 -0.17471093 -0.09349834 0.224042 0.30558607 0.43595973 -0.23363248 -0.020432942
-0.064256616 -0.12760873 0.10655987 -0.037362047 -0.068591155 0.07528877 -0.0044732243 -0.0054871435
-0.0112270005 0.071909495 0.031281218 -0.01838154 -0.20081288 -0.13999969 0.39031342 -0.0329196
-0.06921456 0.5405846 0.33464906 -0.021191372 -0.046990365 -0.07544777 0.004611715 -0.117002524
0.12634392 -0.09241869 -0.11715146 0.40296516 0.03784332 -0.15586573 0.2722431 0.01712825
-0.11224687 -0.17665179 0.060672008 -0.07164378 -0.00012291184 0.1917601 -0.0412891 0.13838018

fc3.weight f4 [4, 64]
00000000: 980f 59be 9cb0 263e 8890 cf3d ff20 a8bd
00000010: 1f96 823e 8906 a93e 437c 963e 12bc 10bf
00000020: e522 003e acc0 203e 2a56 8fbe c67a 4d3e
00000030: d026 573d c060 00bc c399 bbbc 77bb a7be
00000040: 5689 82bd 88c7 88be 8860 92bc aa35 6b3e
00000050: 7944 463e 34fa ed3d 2c6f c8bd ae93 d53d
00000060: 00a1 0f3f 08a5 32be dcc5 65be 860b d43d
00000070: 3f8f 033e 1ab6 2e3e 03ee 8dbe 7f4c 043e
00000080: 740a 383e 657a 043e 25ee 273e f310 1b3e
00000090: 19ed 70be bee1 47bd 0e9d 473e a9fc d63e
000000a0: e42f 69be e7e5 283e 56f2 8e3e bf8a 8f3e
000000b0: 7d2f 8cbd 313a 10be bdf4 e63d 4d3f 29be
000000c0: ac13 12bd 7911 d6bb ca75 1dbe 51d1 a93e
000000d0: c07d 5e3e 6611 3abe 53ab 1f3e 0285 963e
000000e0: 450a ebbe 225f 88bc 0c45 903e 05dc afbe
000000f0: 0bd6 db3d f50b 2d3e 0aa6 4bbe 7602 b83d
00000100: 9f77 d73e e7fb 5d3d da76 eb3d d029 6bbe
00000110: 81d4 2a3e 5497 e43e a746 8f3e fdc4 9c3d
00000120: adc9 e13d a2d4 0c3e 3d59 debd 60aa 4d3e
00000130: 3dc4 883d c89a e93d cb20 88ba eeec 003d
00000140: bf18 82bd 3837 3dbe b2ba 97bd 3ec7 de3d
00000150: 84c6 193e 8cef 673e bab9 11be 2efe 483e
00000160: b7cd 003f d3ce 2ebe c3d2 80bd cf33 923e
00000170: 86f5 adbe 180c 8a3e 2858 9e3d 6486 1b3e
00000180: 62d1 9a3e 9c95 303e eac6 583e 85d7 fa3e
00000190: b1e4 353d b31b b5be 41a3 4b3e dd28 af3e
000001a0: 3f9e 433c 7d8a 5a3e 522c 2b3e 629d b43e
000001b0: 2f4c cc3c 1032 0abe f357 183e b65e ebbc
000001c0: 3098 913d b65b f9bd 6a16 c8bd 2089 813e
000001d0: 895a a63e 0bc9 4fbd 667b 2a3e 7766 903e
000001e0: 87a0 5cbe 9d98 48be 7853 8d3e e4f8 c13c
000001f0: 47d2 8abd dfea a1bc 0ab3 65be c68c 913d
00000200: 5a64 b8be 3d65 403e 790f 993e 3a07 89be
00000210: 145b af3e 8993 a3bd 2cb7 d73d 307d 9abd
00000220: 142b 463e 8893 0e3e 816d 43be 216d 633e
00000230: 71bd 1d3e 70a6 86be 43c5 1dbd 75bd 1f3e
00000240: 4c48 74bc b2d4 02bf 904b b7bd d993 aa3d
00000250: b2bb 753d 1004 6d3e 6e37 87be e9a4 c73e
00000260: 377b 423f 71b3 61bd d13e 0e3c 3f56 173f
00000270: 75ad 0c3d a2fa a43e f711 58be f444 123e
00000280: 51b5 44bc 0e0d 523e 833b 583e c16b 0bbe
00000290: df9a a33d 604d acbe 8244 5f3e f5a9 2b3e
000002a0: 71ae 22be 24de 453e a6d3 723e 172c 743e
000002b0: bd2a 613e 8e81 15be 8a9f 5b3e e905 633e
000002c0: 68a4 a83d e83a d2be a7d7 77be edeb a83e
000002d0: 7ee5 9fbd d6be 443e 2623 ed3d 4450 5d3e
000002e0: 7d5d e2bd 9f83 583b 06ce 193e 43b9 67be
000002f0: 4f06 bebe c1ae 183e 0883 dbbd 2646 1c3e
00000300: 0b2b 713d 1d7b 9b3e 0ec3 ee3d 1436 d7bd
00000310: 4fc1 3f3e 366c db3e 3fb0 87bb 1dcc d7bc
00000320: 3d98 623e 8478 663e 382f ae3d 4855 063e
00000330: 1c2d 5f3e a415 0e3d b516 8a3d 9c88 6ebd
00000340: 7a29 b93d 0007 b73d 58f4 9f3d eb6c 223e
00000350: 247d cf3d 5023 8b3e 953f 91be 8bbe 853e
00000360: 3fcc 7b3e 0bb5 cbbe 6894 96be 88b1 8cbc
00000370: 5110 b23e a2d4 b93c f596 febd f8b3 d13d
00000380: 1847 b4bb b874 643e 5439 f43b 83a8 de3e
00000390: 26c4 2ebf 800d 1dbe b5db 373e 9313 0c3f
000003a0: 006d 603c 3c0c 673e 7c14 743e c793 333d
000003b0: 55f8 443e 9cb8 59be 40ef 0b3e 4039 b7be
000003c0: cebb de3e 644f 93be a9df 323e 4422 513e
000003d0: ec76 923d 0ce0 813e b513 263e 2f0c f43e
000003e0: 352f 00be 728e 0ebe a245 133e 5dbf a8be
000003f0: 8a96 0f3c 50dd 863c e1bd 58be b258 953e
-0.21197355 0.16278309 0.10134989 -0.082094185 0.25505158 0.33012798 0.2939168 -0.5653697
0.12513311 0.15698498 -0.27995425 0.20066366 0.05252725 -0.007835567 -0.022900468 -0.32760212
-0.06373851 -0.2671473 -0.017868295 0.2296969 0.19362058 0.11619988 -0.09786829 0.10428558
0.5610504 -0.17445767 -0.22438759 0.103537604 0.12847613 0.17061654 -0.2772065 0.12919806
0.17972738 0.12937315 0.16399439 0.15143184 -0.23527946 -0.04879927 0.19493505 0.4198964
-0.22772175 0.16493951 0.27919263 0.28035542 -0.06844995 -0.14084698 0.11277149 -0.16528054
-0.03566329 -0.0065328446 -0.15376964 0.33167508 0.21727657 -0.181707 0.15592699 0.29398352
-0.45906273 -0.016646925 0.2817768 -0.3434755 0.10734185 0.16899092 -0.19887558 0.089848444
0.4208345 0.05419531 0.114972785 -0.22965169 0.16682626 0.44646704 0.2798359 0.0765476
0.11024795 0.13752988 -0.108568646 0.20084524 0.066780545 0.11406475 -0.001038575 0.031475954
-0.06352376 -0.18478096 -0.07408656 0.10877846 0.15017134 0.22649974 -0.14231005 0.19628212
0.50313896 -0.17071085 -0.062901996 0.28555152 -0.33976382 0.26962352 0.07731658 0.15187985
0.3023787 0.17244571 0.2116963 0.48992553 0.04440755 -0.35372695 0.19886495 0.34210864
0.011939584 0.21341892 0.16716126 0.35276324 0.02493867 -0.1349566 0.148773 -0.028731685
0.071091056 -0.121756956 -0.097699 0.2529993 0.32490948 -0.05072884 0.16648635 0.28203174
-0.21545611 -0.19589467 0.27602744 0.02367825 -0.067783885 -0.019765316 -0.22431579 0.071069285
-0.36014062 0.1878862 0.29894617 -0.26763326 0.34249175 -0.079871245 0.10532984 -0.07543409
0.1935237 0.13923466 -0.19084741 0.22209598 0.15404297 -0.26298857 -0.0385182 0.15599616
-0.014909815 -0.511058 -0.08949959 0.08328981 0.059993453 0.23146081 -0.26409477 0.38993004
0.7596926 -0.05510277 0.008681969 0.59115976 0.03434511 0.32222468 -0.21100603 0.14284116
-0.01200612 0.20512792 0.21116452 -0.13615324 0.07988524 -0.33652782 0.21803477 0.16764052
-0.15886857 0.19323021 0.2371355 0.23844944 0.2198896 -0.14600202 0.21447578 0.22170223
0.08234483 -0.41060567 -0.24203359 0.32992497 -0.07807444 0.19213423 0.1157897 0.2161265
-0.11052988 0.0033037437 0.15019998 -0.22629265 -0.37114188 0.14910413 -0.107183516 0.15261135
0.05887894 0.30367365 0.116582975 -0.105083615 0.18726085 0.42855996 -0.004140883 -0.026342446
0.22128387 0.2250691 0.085051 0.1311847 0.21794552 0.034688607 0.06742612 -0.05823575
0.09041114 0.08936882 0.07810277 0.15861861 0.101312906 0.2717538 -0.28368822 0.26121935
0.24589632 -0.39786562 -0.294101 -0.017174497 0.34778073 0.022684399 -0.124311365 0.102394044
-0.005501639 0.2231015 0.007453123 0.4348794 -0.6826805 -0.15337181 0.17954905 0.5471737
0.013697863 0.22563261 0.23835939 0.043842103 0.19235356 -0.21261829 0.13665485 -0.35785866
0.4350266 -0.28771508 0.17468132 0.20423228 0.07151589 0.25366247 0.16218455 0.47665545
-0.12518008 -0.13921526 0.14382032 -0.329585 0.008763919 0.016462952 -0.21166183 0.29169232

fc3.bias f4 [4]
00000000: 3edd ad3e 7938 8c3e cf59 383e 313d 493e
0.33957857 0.27386835 0.1800301 0.19652249
